…
                        "section_path": "./screenshots-images-2/chapter_2/section_12",
                        "images": [
                            "./screenshots-images-2/chapter_2/section_12/101d28da-938b-4b11-a8ac-342462348c4d.png"
                        ],
                        "code_images": [],
                        "status": "images tested ok",
                        "errors": [],
                        "extracted-text": "Inspecting the model\n\nWe can use the model.summary() method to inspect the shape of the network at each layer, as shown\nin Table 2-1.\n\nTable 2-1. Output from the model. summary() method\n\nLayer (type) Outputshape Param #\n\nInputLayer (None, 32, 32,3) 0\n\nFlatten (None, 3072) 0\nDense (None, 200) 614,600\nDense (None, 150) 30,150\nDense (None, 10) 1,510\nTotal params 646,260\nTrainable params 646,260\n\nNon-trainable params 0\n\nNotice how the shape of our Input layer matches the shape of x_train and the shape of our Dense\noutput layer matches the shape of y_train.Keras uses None asa marker for the first dimension to\nshow that it doesn\u2019t yet know the number of observations that will be passed into the network. In fact, it\ndoesn\u2019t ne
…
                            "./screenshots-images-2/chapter_2/section_23/d4d85b4e-d7ab-4384-ae4c-aefc6a14f47f.png"
                        ],
                        "code_images": [],
                        "status": "images tested ok",
                        "errors": [],
                        "extracted-text": "Inspecting the model\n\nIt\u2019s really informative to look at how the shape of the tensor changes as data flows through from one con-\nvolutional layer to the next. We can use the model.summary() method to inspect the shape of the tensor\nas it passes through the network (Table 2-2).\n\nTable 2-2. CNN model summary\n\nLayer (type) Output shape Param #\n\nInputLayer (None, 32, 32,3) 0\n\nConv2D (None, 16, 16,10) 490\nConv2D (None, 8, 8, 20) 1,820\nFlatten (None, 1280) 0\nDense (None, 10) 12,810\nTotal params 15,120\nTrainable params 15,120\n\nNon-trainable params 0\n\nLet\u2019s walk through our network layer by layer, noting the shape of the tensor as we go:\n\n1. The input shape is (None, 32, 32, 3) \u2014Keras uses None to represent the fact that we can pass\nany number of images through the network simultaneously. Since the network is just performing\ntensor algebra, we don\u2019t n
…
\nLeakyReLU\n\nConv2D\nBatchNormalization\nLeakyReLU\n\nConv2D\nBatchNormalization\nLeakyReLU\n\nFlatten\n\nDense\nBatchNormalization\nLeakyReLU\n\nDropout\n\nOutput shape\n(None, 32, 32, 3)\n(None, 32, 32, 32)\n(None, 32, 32, 32)\n(None, 32, 32, 32)\n(None, 16, 16, 32)\n(None, 16, 16, 32)\n(None, 16, 16, 32)\n(None, 16, 16, 64)\n(None, 16, 16, 64)\n(None, 16, 16, 64)\n(None, 8, 8, 64)\n(None, 8, 8, 64)\n(None, 8, 8, 64)\n(None, 4096)\n(None, 128)\n(None, 128)\n(None, 128)\n\n(None, 128)\n\nParam #\n\n896\n\n128\n\n9,248\n\n128\n\n18,496\n\n256\n\n36,928\n\n256\n\n0\n\n524,416\n\n512\n\nDense (None, 128) 524,416\n\nBatchNormalization (None, 128) 512\nLeakyReLU (None, 128) 0\nDropout (None, 128) 0\nDense (None, 10) 1290\nTotal params 592,554\n\nTrainable params 591,914\n\nNon-trainable params 640\n\nTIP\n\nBefore moving on, make sure you are able to calculate the output shape and number of parameters for each layer by\nhand. It\u2019s a good exercise to prove to yourself that you have fully understood how each layer is constructed and how\nit is connected to the preceding layer! Don\u2019t forget to include the bias weights that are included as part of the\n\nConv2D and Dense layers.\n\n",
…
                            "./screenshots-images-2/chapter_3/section_6/f3614e63-6930-4c54-b96d-8e6e66eefedd.png"
                        ],
                        "code_images": [],
                        "status": "images tested ok",
                        "errors": [],
                        "extracted-text": "The Encoder\n\nIn an autoencoder, the encoder\u2019s job is to take the input image and map it to an embedding vector in the\nlatent space. The architecture of the encoder we will be building is shown in Table 3-1.\n\nTable 3-1. Model summary of the encoder\n\nLayer (type) Output shape Param #\n\nInputLayer (None, 32, 32,1) 0\n\nConv2D (None, 16, 16,32) 320\nConv2D (None, 8, 8, 64) 18,496\nConv2D (None, 4, 4,128) 73,856\nFlatten (None, 2048) 0\nDense (None, 2) 4,098\nTotal params 96,770\nTrainable params 96,770\n\nNon-trainable params 0\n\nTo achieve this, we first create an Input layer for the image and pass this through three Conv2D layers\nin sequence, each capturing increasingly high-level features. We use a stride of 2 to halve the size of the\noutput of each layer, while increasing the number of channels. The last convolutional layer is flattened\n\nan
…
                            "./screenshots-images-2/chapter_3/section_7/16383c05-fe1a-40d5-bec4-b1cc803e7222.png",
                            "./screenshots-images-2/chapter_3/section_7/f57b0961-7c0e-4066-b4f4-ea13468a6c68.png"
                        ],
                        "code_images": [],
                        "status": "images tested ok",
                        "errors": [],
                        "extracted-text": "The Decoder\n\nThe decoder is a mirror image of the encoder\u2014instead of convolutional layers, we use convolutional\n\ntranspose layers, as shown in Table 3-2.\n\nTable 3-2. Model summary of the decoder\n\nLayer (type) Output shape Param #\nInputLayer (None, 2) 0\n\nDense (None, 2048) 6,144\nReshape (None, 4, 4,128) 0\n\nConv2DTranspose (None, 8, 8,128) 147,584\nConv2DTranspose (None, 16, 16,64) 73,792\n\nConv2DTranspose (None, 32, 32,32) 18,464\n\nConv2D (None, 32, 32,1) 289\nTotal params 246,273\nTrainable params 246,273\n\nNon-trainable params 0\n\nCONVOLUTIONAL TRANSPOSE LAYERS\nStandard convolutional layers allow us to halve the size of an input tensor in both dimensions (height\nand width), by setting strides = 2.\n\nThe convolutional transpose layer uses the same principle as a standard convolutional layer (passing a\nfilter across the image), but is different 
…
atten layer directly to the 2D latent space, we connect it to layers\nz_mean and z_log_ var.\n\n@ The Sampling layer samples a point z in the latent space from the normal distribution defined\nby the parameters z_mean and z_log_var.\n\n\u00ae The Keras Model that defines the encoder\u2014a model that takes an input image and outputs\nz_mean, z_log_var,andasampled point z from the normal distribution defined by these\nparameters.\n\nAsummary of the encoder is shown in Table 3-4.\n\nTable 3-4. Model summary of the VAE encoder\n\nLayer (type) Output shape Param # Connected to\nInputLayer (input) (None, 32,32,1) 0 0\n\nConv2D (conv2d_1) (None, 16, 16,32) 320 [input]\nConv2D (conv2d_2) (None, 8, 8, 64) 18,496 [conv2d_1]\nConv2D (conv2d_3) (None, 4, 4,128) 73,856 [conv2d_2]\nFlatten (flatten) (None, 2048) 0 [conv2d_3]\nDense (z_mean) (None, 2) 4,098 [flatten]\nDense (z_log_var) (None, 2) 4,098 [flatten]\nSampling (z) (None, 2) 0 [z_mean, z_log_var]\nTotal params 100,868\n\nTrainable params 100,868\n\nNon-trainable params 0\n\nThe only other part of the original autoencoder that we need to change is the loss function.\n",
                        "extracted-code": ""
                    },
                    {
                        "section_id": 3.14,
                        "section_name": "The Loss Function",
                        "section_path": "./screenshots-images-2/chapter_3/section_14",
…
on layers after each convolutional layer to stabilize training. Even\nthough each batch takes a longer time to run, the number of batches required to reach the same loss\n\nis greatly reduced.\n\nWe increase the f factor for the KL divergence to 2,000. This is a parameter that requires tuning; for\nthis dataset and architecture this value was found to generate good results.\n\nThe full architectures of the encoder and decoder are shown in Tables 3-5 and 3-6, respectively.\n\nTable 3-5. Model summary of the VAE faces encoder\n\nLayer (type) Output shape Param # Connected to\nInputLayer (input) (None, 32, 32, 3) 0 ]\n\nConv2D (conv2d_1) (None, 16, 16,128) 3,584 input]\nBatchNormalization (bn_1) (None, 16, 16,128) 512 conv2d_1]\nLeakyReLU (Ir_1) (None, 16, 16,128) 0 bn_1]\nConv2D (conv2d_2) (None, 8, 8, 128) 147,584 Jr_1]\nBatchNormalization (bn_2) (None, 8, 8, 128) 512 conv2d_2]\nLeakyReLU (Ir_2) (None, 8, 8, 128) 0 bn_2]\nConv2D (conv2d_3) (None, 4, 4, 128) 147,584 r_2]\nBatchNormalization (bn_3) (None, 4, 4, 128) 512 conv2d_3]\nLeakyReLU (Ir_3) (None, 4, 4, 128) 0 bn_3]\nConv2D (conv2d_4) (None, 2, 2, 128) 147,584 Ir_3]\nBatchNormalization (bn_4) (None, 2, 2, 128) 512 conv2d_4]\nLeakyReLU (Ir_4) (None, 2, 2, 128) 0 bn_4]\nFlatten (flatten) (None, 512) 0 lr_4]\nDense (z_mean) (None, 200) 102,600 flatten]\n\n\nDense (z_mean) (None, 200) 102,600 [flatten]\n\nDense (z_log_var) (None, 200) 102,600 [flatten]\n\nSampling (z) (None, 200) 0 [z_mean, z_log_var]\nTotal params 653,584\n\nTrainable params 652,560\n\nNon-trainable params 1,024\n\nTable 3-6. Model summary of the VAE faces decoder\n\nLayer (type) Output shape Param #\nInputLayer (None, 200) 0\n\nDense (None, 512) 102,912\nBatchNormalization (None, 512) 2,048\nLeakyReLU (None, 512) 0\nReshape (None, 2, 2, 128) 0\n\nConv2DTranspose (None, 4, 4, 128) 147,584\nBatchNormalization (None, 4, 4, 128) 512\nLeakyReLU (None, 4, 4, 128) 0\nConv2DTranspose (None, 8, 8, 128) 147,584\nBatchNormalization (None, 8, 8, 128) 512\nLeakyReLU (None, 8, 8, 128) 0\nConv2DTranspose (None, 16, 16,128) 147,584\nBatchNormalization (None, 16, 16,128) 512\nLeakyReLU (None, 16, 16,128) 0\nConv2DTranspose (None, 32, 32,128) 147,584\nBatchNormalization (None, 32, 32,128) 512\nLeakyReLU (None, 32, 32,128) 0\n\nConv2DTranspose (None, 32, 32, 3) 3,459\n\nTotal params 700,803\nTrainable params 698,755\n\nNon-trainable params 2,048\n\nAfter around five epochs of training, our VAE should be able to produce novel images of celebrity faces!\n",
                        "extracted-code": ""
                    },
                    {
                        "section_id": 3.2,
                        "section_name": "Analysis of the Variational Autoencoder",
…
                        "status": "images tested ok",
                        "errors": [],
                        "extracted-text": "The Discriminator\n\nThe goal of the discriminator is to predict if an image is real or fake. This is a supervised image classifica-\ntion problem, so we can use a similar architecture to those we worked with in Chapter 2: stacked convo-\nlutional layers, with a single output node.\n\nThe full architecture of the discriminator we will be building is shown in Table 4-1.\n\nTable 4-1. Model summary of the discriminator\n\nLayer (type) Output shape Param #\nInputLayer (None, 64, 64, 1) 0\nConv2D (None, 32, 32,64) 1,024\nLeakyReLU (None, 32, 32,64) 0\nDropout (None, 32, 32,64) 0\nConv2D (None, 16, 16,128) 131,072\nBatchNormalization (None, 16, 16,128) 512\nLeakyReLU (None, 16, 16,128) 0\nDropout (None, 16, 16,128) 0\nConv2D (None, 8, 8, 256) 524,288\nBatchNormalization (None, 8, 8, 256) 1,024\nLeakyReLU (None, 8, 8, 256) 0\nDropout (None, 8, 8, 256) 0\nConv2D (None, 4, 4, 512) 2,097,152\nBatchNormalization (None, 4, 4, 512) 2,048\nLeakyReLU (None, 4, 4, 512) 0\nDropout (None, 4, 4, 512) 0\nConv2D (None, 1, 1, 1) 8,192\nFlatten (None, 1) 0\n\nTotal params 2,765,312\n\nTrainable params 2,763,520\n\nNon-trainable params 1,792\n\nThe Keras code to build the discriminator is provided in Example 4-4.\n\nExample 4-4. The discriminator\n\ndiscriminator_input = layers.Input(shape=(64, 64, 1)) @\nx = layers.Conv2D(64, kernel_size=4, strides=2, padding=\"same\", use_bias = False)\ndiscriminator_input\n\nlayers .LeakyReLU(0.2) (x)\n= layers.D
…
er in a variational autoencoder. In fact, the generator of a\nGAN fulfills exactly the same purpose as the decoder of a VAE: converting a vector in the latent space to\nan image. The concept of mapping from a latent space back to the original domain is very common in\ngenerative modeling, as it gives us the ability to manipulate vectors in the latent space to change high-lev-\nel features of images in the original domain.\n\nThe architecture of the generator we will be building is shown in Table 4-2.\n\nTable 4-2. Model summary of the generator\n\nLayer (type) Output shape Param #\nInputLayer (None, 100) 0\nReshape (None, 1, 1, 100) 0\n\nConv2DTranspose (None, 4, 4, 512) 819,200\nBatchNormalization (None, 4, 4, 512) 2,048\nReLU (None, 4, 4, 512) 0\nConv2DTranspose (None, 8, 8, 256) 2,097,152\nBatchNormalization (None, 8, 8, 256) 1,024\nReLU (None, 8, 8, 256) 0\nConv2DTranspose (None, 16, 16,128) 524,288\nBatchNormalization (None, 16, 16,128) 512\nReLU (None, 16, 16,128) 0\nConv2DTranspose (None, 32, 32,64) 131,072\nBatchNormalization (None, 32, 32,64) 256\nReLU (None, 32, 32,64) 0\n\nConv2DTranspose (None, 64, 64, 1) 1,024\n\nTotal params 3,576,576\nTrainable params 3,574,656\n\nNon-trainable params 1,920\n\nThe code for building the generator is given in Example 4-5.\n\nExample 4-5. The generator\n\ngenerator input = layers.Input(shape=(100,)) @\nx = layers.Reshape((1, 1, 100))(generator_input) @\nx = layers.Conv2DTranspose(\n512, kernel_size=4, strides=1, padding=\"valid\", use_bias = False\n)(x) \u00ae\nx = laye
…
